Model Summary: 225 layers, 6.25949e+07 parameters, 6.25949e+07 gradients
------------------------------------------------------------

ModuleList(
  (0): Sequential(
    (Conv2d): Conv2d(3, 32, kernel_size=(3, 3), stride=(1, 1), padding=(1, 1), bias=False)
    (BatchNorm2d): BatchNorm2d(32, eps=0.0001, momentum=0.003, affine=True, track_running_stats=True)
    (activation): LeakyReLU(negative_slope=0.1, inplace=True)
  )
  (1): Sequential(
    (Conv2d): Conv2d(32, 64, kernel_size=(3, 3), stride=(2, 2), padding=(1, 1), bias=False)
    (BatchNorm2d): BatchNorm2d(64, eps=0.0001, momentum=0.003, affine=True, track_running_stats=True)
    (activation): LeakyReLU(negative_slope=0.1, inplace=True)
  )
  (2): Sequential(
    (Conv2d): Conv2d(64, 32, kernel_size=(1, 1), stride=(1, 1), bias=False)
    (BatchNorm2d): BatchNorm2d(32, eps=0.0001, momentum=0.003, affine=True, track_running_stats=True)
    (activation): LeakyReLU(negative_slope=0.1, inplace=True)
  )
  (3): Sequential(
    (Conv2d): Conv2d(32, 64, kernel_size=(3, 3), stride=(1, 1), padding=(1, 1), bias=False)
    (BatchNorm2d): BatchNorm2d(64, eps=0.0001, momentum=0.003, affine=True, track_running_stats=True)
    (activation): LeakyReLU(negative_slope=0.1, inplace=True)
  )
  (4): weightedFeatureFusion() #shortcut
  (5): Sequential(
    (Conv2d): Conv2d(64, 128, kernel_size=(3, 3), stride=(2, 2), padding=(1, 1), bias=False)
    (BatchNorm2d): BatchNorm2d(128, eps=0.0001, momentum=0.003, affine=True, track_running_stats=True)
    (activation): LeakyReLU(negative_slope=0.1, inplace=True)
  )
  (6): Sequential(
    (Conv2d): Conv2d(128, 64, kernel_size=(1, 1), stride=(1, 1), bias=False)
    (BatchNorm2d): BatchNorm2d(64, eps=0.0001, momentum=0.003, affine=True, track_running_stats=True)
    (activation): LeakyReLU(negative_slope=0.1, inplace=True)
  )
  (7): Sequential(
    (Conv2d): Conv2d(64, 128, kernel_size=(3, 3), stride=(1, 1), padding=(1, 1), bias=False)
    (BatchNorm2d): BatchNorm2d(128, eps=0.0001, momentum=0.003, affine=True, track_running_stats=True)
    (activation): LeakyReLU(negative_slope=0.1, inplace=True)
  )
  (8): weightedFeatureFusion()
  (9): Sequential(
    (Conv2d): Conv2d(128, 64, kernel_size=(1, 1), stride=(1, 1), bias=False)
    (BatchNorm2d): BatchNorm2d(64, eps=0.0001, momentum=0.003, affine=True, track_running_stats=True)
    (activation): LeakyReLU(negative_slope=0.1, inplace=True)
  )
  (10): Sequential(
    (Conv2d): Conv2d(64, 128, kernel_size=(3, 3), stride=(1, 1), padding=(1, 1), bias=False)
    (BatchNorm2d): BatchNorm2d(128, eps=0.0001, momentum=0.003, affine=True, track_running_stats=True)
    (activation): LeakyReLU(negative_slope=0.1, inplace=True)
  )
  (11): weightedFeatureFusion()
  (12): Sequential(
    (Conv2d): Conv2d(128, 256, kernel_size=(3, 3), stride=(2, 2), padding=(1, 1), bias=False)
    (BatchNorm2d): BatchNorm2d(256, eps=0.0001, momentum=0.003, affine=True, track_running_stats=True)
    (activation): LeakyReLU(negative_slope=0.1, inplace=True)
  )
  (13): Sequential(
    (Conv2d): Conv2d(256, 128, kernel_size=(1, 1), stride=(1, 1), bias=False)
    (BatchNorm2d): BatchNorm2d(128, eps=0.0001, momentum=0.003, affine=True, track_running_stats=True)
    (activation): LeakyReLU(negative_slope=0.1, inplace=True)
  )
  (14): Sequential(
    (Conv2d): Conv2d(128, 256, kernel_size=(3, 3), stride=(1, 1), padding=(1, 1), bias=False)
    (BatchNorm2d): BatchNorm2d(256, eps=0.0001, momentum=0.003, affine=True, track_running_stats=True)
    (activation): LeakyReLU(negative_slope=0.1, inplace=True)
  )
  (15): weightedFeatureFusion()
  (16): Sequential(
    (Conv2d): Conv2d(256, 128, kernel_size=(1, 1), stride=(1, 1), bias=False)
    (BatchNorm2d): BatchNorm2d(128, eps=0.0001, momentum=0.003, affine=True, track_running_stats=True)
    (activation): LeakyReLU(negative_slope=0.1, inplace=True)
  )
  (17): Sequential(
    (Conv2d): Conv2d(128, 256, kernel_size=(3, 3), stride=(1, 1), padding=(1, 1), bias=False)
    (BatchNorm2d): BatchNorm2d(256, eps=0.0001, momentum=0.003, affine=True, track_running_stats=True)
    (activation): LeakyReLU(negative_slope=0.1, inplace=True)
  )
  (18): weightedFeatureFusion()
  (19): Sequential(
    (Conv2d): Conv2d(256, 128, kernel_size=(1, 1), stride=(1, 1), bias=False)
    (BatchNorm2d): BatchNorm2d(128, eps=0.0001, momentum=0.003, affine=True, track_running_stats=True)
    (activation): LeakyReLU(negative_slope=0.1, inplace=True)
  )
  (20): Sequential(
    (Conv2d): Conv2d(128, 256, kernel_size=(3, 3), stride=(1, 1), padding=(1, 1), bias=False)
    (BatchNorm2d): BatchNorm2d(256, eps=0.0001, momentum=0.003, affine=True, track_running_stats=True)
    (activation): LeakyReLU(negative_slope=0.1, inplace=True)
  )
  (21): weightedFeatureFusion()
  (22): Sequential(
    (Conv2d): Conv2d(256, 128, kernel_size=(1, 1), stride=(1, 1), bias=False)
    (BatchNorm2d): BatchNorm2d(128, eps=0.0001, momentum=0.003, affine=True, track_running_stats=True)
    (activation): LeakyReLU(negative_slope=0.1, inplace=True)
  )
  (23): Sequential(
    (Conv2d): Conv2d(128, 256, kernel_size=(3, 3), stride=(1, 1), padding=(1, 1), bias=False)
    (BatchNorm2d): BatchNorm2d(256, eps=0.0001, momentum=0.003, affine=True, track_running_stats=True)
    (activation): LeakyReLU(negative_slope=0.1, inplace=True)
  )
  (24): weightedFeatureFusion()
  (25): Sequential(
    (Conv2d): Conv2d(256, 128, kernel_size=(1, 1), stride=(1, 1), bias=False)
    (BatchNorm2d): BatchNorm2d(128, eps=0.0001, momentum=0.003, affine=True, track_running_stats=True)
    (activation): LeakyReLU(negative_slope=0.1, inplace=True)
  )
  (26): Sequential(
    (Conv2d): Conv2d(128, 256, kernel_size=(3, 3), stride=(1, 1), padding=(1, 1), bias=False)
    (BatchNorm2d): BatchNorm2d(256, eps=0.0001, momentum=0.003, affine=True, track_running_stats=True)
    (activation): LeakyReLU(negative_slope=0.1, inplace=True)
  )
  (27): weightedFeatureFusion()
  (28): Sequential(
    (Conv2d): Conv2d(256, 128, kernel_size=(1, 1), stride=(1, 1), bias=False)
    (BatchNorm2d): BatchNorm2d(128, eps=0.0001, momentum=0.003, affine=True, track_running_stats=True)
    (activation): LeakyReLU(negative_slope=0.1, inplace=True)
  )
  (29): Sequential(
    (Conv2d): Conv2d(128, 256, kernel_size=(3, 3), stride=(1, 1), padding=(1, 1), bias=False)
    (BatchNorm2d): BatchNorm2d(256, eps=0.0001, momentum=0.003, affine=True, track_running_stats=True)
    (activation): LeakyReLU(negative_slope=0.1, inplace=True)
  )
  (30): weightedFeatureFusion()
  (31): Sequential(
    (Conv2d): Conv2d(256, 128, kernel_size=(1, 1), stride=(1, 1), bias=False)
    (BatchNorm2d): BatchNorm2d(128, eps=0.0001, momentum=0.003, affine=True, track_running_stats=True)
    (activation): LeakyReLU(negative_slope=0.1, inplace=True)
  )
  (32): Sequential(
    (Conv2d): Conv2d(128, 256, kernel_size=(3, 3), stride=(1, 1), padding=(1, 1), bias=False)
    (BatchNorm2d): BatchNorm2d(256, eps=0.0001, momentum=0.003, affine=True, track_running_stats=True)
    (activation): LeakyReLU(negative_slope=0.1, inplace=True)
  )
  (33): weightedFeatureFusion()
  (34): Sequential(
    (Conv2d): Conv2d(256, 128, kernel_size=(1, 1), stride=(1, 1), bias=False)
    (BatchNorm2d): BatchNorm2d(128, eps=0.0001, momentum=0.003, affine=True, track_running_stats=True)
    (activation): LeakyReLU(negative_slope=0.1, inplace=True)
  )
  (35): Sequential(
    (Conv2d): Conv2d(128, 256, kernel_size=(3, 3), stride=(1, 1), padding=(1, 1), bias=False)
    (BatchNorm2d): BatchNorm2d(256, eps=0.0001, momentum=0.003, affine=True, track_running_stats=True)
    (activation): LeakyReLU(negative_slope=0.1, inplace=True)
  )
  (36): weightedFeatureFusion()
  (37): Sequential(
    (Conv2d): Conv2d(256, 512, kernel_size=(3, 3), stride=(2, 2), padding=(1, 1), bias=False)
    (BatchNorm2d): BatchNorm2d(512, eps=0.0001, momentum=0.003, affine=True, track_running_stats=True)
    (activation): LeakyReLU(negative_slope=0.1, inplace=True)
  )
  (38): Sequential(
    (Conv2d): Conv2d(512, 256, kernel_size=(1, 1), stride=(1, 1), bias=False)
    (BatchNorm2d): BatchNorm2d(256, eps=0.0001, momentum=0.003, affine=True, track_running_stats=True)
    (activation): LeakyReLU(negative_slope=0.1, inplace=True)
  )
  (39): Sequential(
    (Conv2d): Conv2d(256, 512, kernel_size=(3, 3), stride=(1, 1), padding=(1, 1), bias=False)
    (BatchNorm2d): BatchNorm2d(512, eps=0.0001, momentum=0.003, affine=True, track_running_stats=True)
    (activation): LeakyReLU(negative_slope=0.1, inplace=True)
  )
  (40): weightedFeatureFusion()
  (41): Sequential(
    (Conv2d): Conv2d(512, 256, kernel_size=(1, 1), stride=(1, 1), bias=False)
    (BatchNorm2d): BatchNorm2d(256, eps=0.0001, momentum=0.003, affine=True, track_running_stats=True)
    (activation): LeakyReLU(negative_slope=0.1, inplace=True)
  )
  (42): Sequential(
    (Conv2d): Conv2d(256, 512, kernel_size=(3, 3), stride=(1, 1), padding=(1, 1), bias=False)
    (BatchNorm2d): BatchNorm2d(512, eps=0.0001, momentum=0.003, affine=True, track_running_stats=True)
    (activation): LeakyReLU(negative_slope=0.1, inplace=True)
  )
  (43): weightedFeatureFusion()
  (44): Sequential(
    (Conv2d): Conv2d(512, 256, kernel_size=(1, 1), stride=(1, 1), bias=False)
    (BatchNorm2d): BatchNorm2d(256, eps=0.0001, momentum=0.003, affine=True, track_running_stats=True)
    (activation): LeakyReLU(negative_slope=0.1, inplace=True)
  )
  (45): Sequential(
    (Conv2d): Conv2d(256, 512, kernel_size=(3, 3), stride=(1, 1), padding=(1, 1), bias=False)
    (BatchNorm2d): BatchNorm2d(512, eps=0.0001, momentum=0.003, affine=True, track_running_stats=True)
    (activation): LeakyReLU(negative_slope=0.1, inplace=True)
  )
  (46): weightedFeatureFusion()
  (47): Sequential(
    (Conv2d): Conv2d(512, 256, kernel_size=(1, 1), stride=(1, 1), bias=False)
    (BatchNorm2d): BatchNorm2d(256, eps=0.0001, momentum=0.003, affine=True, track_running_stats=True)
    (activation): LeakyReLU(negative_slope=0.1, inplace=True)
  )
  (48): Sequential(
    (Conv2d): Conv2d(256, 512, kernel_size=(3, 3), stride=(1, 1), padding=(1, 1), bias=False)
    (BatchNorm2d): BatchNorm2d(512, eps=0.0001, momentum=0.003, affine=True, track_running_stats=True)
    (activation): LeakyReLU(negative_slope=0.1, inplace=True)
  )
  (49): weightedFeatureFusion()
  (50): Sequential(
    (Conv2d): Conv2d(512, 256, kernel_size=(1, 1), stride=(1, 1), bias=False)
    (BatchNorm2d): BatchNorm2d(256, eps=0.0001, momentum=0.003, affine=True, track_running_stats=True)
    (activation): LeakyReLU(negative_slope=0.1, inplace=True)
  )
  (51): Sequential(
    (Conv2d): Conv2d(256, 512, kernel_size=(3, 3), stride=(1, 1), padding=(1, 1), bias=False)
    (BatchNorm2d): BatchNorm2d(512, eps=0.0001, momentum=0.003, affine=True, track_running_stats=True)
    (activation): LeakyReLU(negative_slope=0.1, inplace=True)
  )
  (52): weightedFeatureFusion()
  (53): Sequential(
    (Conv2d): Conv2d(512, 256, kernel_size=(1, 1), stride=(1, 1), bias=False)
    (BatchNorm2d): BatchNorm2d(256, eps=0.0001, momentum=0.003, affine=True, track_running_stats=True)
    (activation): LeakyReLU(negative_slope=0.1, inplace=True)
  )
  (54): Sequential(
    (Conv2d): Conv2d(256, 512, kernel_size=(3, 3), stride=(1, 1), padding=(1, 1), bias=False)
    (BatchNorm2d): BatchNorm2d(512, eps=0.0001, momentum=0.003, affine=True, track_running_stats=True)
    (activation): LeakyReLU(negative_slope=0.1, inplace=True)
  )
  (55): weightedFeatureFusion()
  (56): Sequential(
    (Conv2d): Conv2d(512, 256, kernel_size=(1, 1), stride=(1, 1), bias=False)
    (BatchNorm2d): BatchNorm2d(256, eps=0.0001, momentum=0.003, affine=True, track_running_stats=True)
    (activation): LeakyReLU(negative_slope=0.1, inplace=True)
  )
  (57): Sequential(
    (Conv2d): Conv2d(256, 512, kernel_size=(3, 3), stride=(1, 1), padding=(1, 1), bias=False)
    (BatchNorm2d): BatchNorm2d(512, eps=0.0001, momentum=0.003, affine=True, track_running_stats=True)
    (activation): LeakyReLU(negative_slope=0.1, inplace=True)
  )
  (58): weightedFeatureFusion()
  (59): Sequential(
    (Conv2d): Conv2d(512, 256, kernel_size=(1, 1), stride=(1, 1), bias=False)
    (BatchNorm2d): BatchNorm2d(256, eps=0.0001, momentum=0.003, affine=True, track_running_stats=True)
    (activation): LeakyReLU(negative_slope=0.1, inplace=True)
  )
  (60): Sequential(
    (Conv2d): Conv2d(256, 512, kernel_size=(3, 3), stride=(1, 1), padding=(1, 1), bias=False)
    (BatchNorm2d): BatchNorm2d(512, eps=0.0001, momentum=0.003, affine=True, track_running_stats=True)
    (activation): LeakyReLU(negative_slope=0.1, inplace=True)
  )
  (61): weightedFeatureFusion()
  (62): Sequential(
    (Conv2d): Conv2d(512, 1024, kernel_size=(3, 3), stride=(2, 2), padding=(1, 1), bias=False)
    (BatchNorm2d): BatchNorm2d(1024, eps=0.0001, momentum=0.003, affine=True, track_running_stats=True)
    (activation): LeakyReLU(negative_slope=0.1, inplace=True)
  )
  (63): Sequential(
    (Conv2d): Conv2d(1024, 512, kernel_size=(1, 1), stride=(1, 1), bias=False)
    (BatchNorm2d): BatchNorm2d(512, eps=0.0001, momentum=0.003, affine=True, track_running_stats=True)
    (activation): LeakyReLU(negative_slope=0.1, inplace=True)
  )
  (64): Sequential(
    (Conv2d): Conv2d(512, 1024, kernel_size=(3, 3), stride=(1, 1), padding=(1, 1), bias=False)
    (BatchNorm2d): BatchNorm2d(1024, eps=0.0001, momentum=0.003, affine=True, track_running_stats=True)
    (activation): LeakyReLU(negative_slope=0.1, inplace=True)
  )
  (65): weightedFeatureFusion()
  (66): Sequential(
    (Conv2d): Conv2d(1024, 512, kernel_size=(1, 1), stride=(1, 1), bias=False)
    (BatchNorm2d): BatchNorm2d(512, eps=0.0001, momentum=0.003, affine=True, track_running_stats=True)
    (activation): LeakyReLU(negative_slope=0.1, inplace=True)
  )
  (67): Sequential(
    (Conv2d): Conv2d(512, 1024, kernel_size=(3, 3), stride=(1, 1), padding=(1, 1), bias=False)
    (BatchNorm2d): BatchNorm2d(1024, eps=0.0001, momentum=0.003, affine=True, track_running_stats=True)
    (activation): LeakyReLU(negative_slope=0.1, inplace=True)
  )
  (68): weightedFeatureFusion()
  (69): Sequential(
    (Conv2d): Conv2d(1024, 512, kernel_size=(1, 1), stride=(1, 1), bias=False)
    (BatchNorm2d): BatchNorm2d(512, eps=0.0001, momentum=0.003, affine=True, track_running_stats=True)
    (activation): LeakyReLU(negative_slope=0.1, inplace=True)
  )
  (70): Sequential(
    (Conv2d): Conv2d(512, 1024, kernel_size=(3, 3), stride=(1, 1), padding=(1, 1), bias=False)
    (BatchNorm2d): BatchNorm2d(1024, eps=0.0001, momentum=0.003, affine=True, track_running_stats=True)
    (activation): LeakyReLU(negative_slope=0.1, inplace=True)
  )
  (71): weightedFeatureFusion()
  (72): Sequential(
    (Conv2d): Conv2d(1024, 512, kernel_size=(1, 1), stride=(1, 1), bias=False)
    (BatchNorm2d): BatchNorm2d(512, eps=0.0001, momentum=0.003, affine=True, track_running_stats=True)
    (activation): LeakyReLU(negative_slope=0.1, inplace=True)
  )
  (73): Sequential(
    (Conv2d): Conv2d(512, 1024, kernel_size=(3, 3), stride=(1, 1), padding=(1, 1), bias=False)
    (BatchNorm2d): BatchNorm2d(1024, eps=0.0001, momentum=0.003, affine=True, track_running_stats=True)
    (activation): LeakyReLU(negative_slope=0.1, inplace=True)
  )
  (74): weightedFeatureFusion()
  (75): Sequential(
    (Conv2d): Conv2d(1024, 512, kernel_size=(1, 1), stride=(1, 1), bias=False)
    (BatchNorm2d): BatchNorm2d(512, eps=0.0001, momentum=0.003, affine=True, track_running_stats=True)
    (activation): LeakyReLU(negative_slope=0.1, inplace=True)
  )
  (76): Sequential(
    (Conv2d): Conv2d(512, 1024, kernel_size=(3, 3), stride=(1, 1), padding=(1, 1), bias=False)
    (BatchNorm2d): BatchNorm2d(1024, eps=0.0001, momentum=0.003, affine=True, track_running_stats=True)
    (activation): LeakyReLU(negative_slope=0.1, inplace=True)
  )
  (77): Sequential(
    (Conv2d): Conv2d(1024, 512, kernel_size=(1, 1), stride=(1, 1), bias=False)
    (BatchNorm2d): BatchNorm2d(512, eps=0.0001, momentum=0.003, affine=True, track_running_stats=True)
    (activation): LeakyReLU(negative_slope=0.1, inplace=True)
  )
  (78): MaxPool2d(kernel_size=5, stride=1, padding=2, dilation=1, ceil_mode=False)
  (79): Sequential()
  (80): MaxPool2d(kernel_size=9, stride=1, padding=4, dilation=1, ceil_mode=False)
  (81): Sequential()
  (82): MaxPool2d(kernel_size=13, stride=1, padding=6, dilation=1, ceil_mode=False)
  (83): Sequential()
  (84): Sequential(
    (Conv2d): Conv2d(2048, 512, kernel_size=(1, 1), stride=(1, 1), bias=False)
    (BatchNorm2d): BatchNorm2d(512, eps=0.0001, momentum=0.003, affine=True, track_running_stats=True)
    (activation): LeakyReLU(negative_slope=0.1, inplace=True)
  )
  (85): Sequential(
    (Conv2d): Conv2d(512, 1024, kernel_size=(3, 3), stride=(1, 1), padding=(1, 1), bias=False)
    (BatchNorm2d): BatchNorm2d(1024, eps=0.0001, momentum=0.003, affine=True, track_running_stats=True)
    (activation): LeakyReLU(negative_slope=0.1, inplace=True)
  )
  (86): Sequential(
    (Conv2d): Conv2d(1024, 512, kernel_size=(1, 1), stride=(1, 1), bias=False)
    (BatchNorm2d): BatchNorm2d(512, eps=0.0001, momentum=0.003, affine=True, track_running_stats=True)
    (activation): LeakyReLU(negative_slope=0.1, inplace=True)
  )
  (87): Sequential(
    (Conv2d): Conv2d(512, 1024, kernel_size=(3, 3), stride=(1, 1), padding=(1, 1), bias=False)
    (BatchNorm2d): BatchNorm2d(1024, eps=0.0001, momentum=0.003, affine=True, track_running_stats=True)
    (activation): LeakyReLU(negative_slope=0.1, inplace=True)
  )
  (88): Sequential(
    (Conv2d): Conv2d(1024, 30, kernel_size=(1, 1), stride=(1, 1))
  )
  (89): YOLOLayer()
  (90): Sequential()
  (91): Sequential(
    (Conv2d): Conv2d(512, 256, kernel_size=(1, 1), stride=(1, 1), bias=False)
    (BatchNorm2d): BatchNorm2d(256, eps=0.0001, momentum=0.003, affine=True, track_running_stats=True)
    (activation): LeakyReLU(negative_slope=0.1, inplace=True)
  )
  (92): Upsample(scale_factor=2.0, mode=nearest)
  (93): Sequential()
  (94): Sequential(
    (Conv2d): Conv2d(768, 256, kernel_size=(1, 1), stride=(1, 1), bias=False)
    (BatchNorm2d): BatchNorm2d(256, eps=0.0001, momentum=0.003, affine=True, track_running_stats=True)
    (activation): LeakyReLU(negative_slope=0.1, inplace=True)
  )
  (95): Sequential(
    (Conv2d): Conv2d(256, 512, kernel_size=(3, 3), stride=(1, 1), padding=(1, 1), bias=False)
    (BatchNorm2d): BatchNorm2d(512, eps=0.0001, momentum=0.003, affine=True, track_running_stats=True)
    (activation): LeakyReLU(negative_slope=0.1, inplace=True)
  )
  (96): Sequential(
    (Conv2d): Conv2d(512, 256, kernel_size=(1, 1), stride=(1, 1), bias=False)
    (BatchNorm2d): BatchNorm2d(256, eps=0.0001, momentum=0.003, affine=True, track_running_stats=True)
    (activation): LeakyReLU(negative_slope=0.1, inplace=True)
  )
  (97): Sequential(
    (Conv2d): Conv2d(256, 512, kernel_size=(3, 3), stride=(1, 1), padding=(1, 1), bias=False)
    (BatchNorm2d): BatchNorm2d(512, eps=0.0001, momentum=0.003, affine=True, track_running_stats=True)
    (activation): LeakyReLU(negative_slope=0.1, inplace=True)
  )
  (98): Sequential(
    (Conv2d): Conv2d(512, 256, kernel_size=(1, 1), stride=(1, 1), bias=False)
    (BatchNorm2d): BatchNorm2d(256, eps=0.0001, momentum=0.003, affine=True, track_running_stats=True)
    (activation): LeakyReLU(negative_slope=0.1, inplace=True)
  )
  (99): Sequential(
    (Conv2d): Conv2d(256, 512, kernel_size=(3, 3), stride=(1, 1), padding=(1, 1), bias=False)
    (BatchNorm2d): BatchNorm2d(512, eps=0.0001, momentum=0.003, affine=True, track_running_stats=True)
    (activation): LeakyReLU(negative_slope=0.1, inplace=True)
  )
  (100): Sequential(
    (Conv2d): Conv2d(512, 30, kernel_size=(1, 1), stride=(1, 1))
  )
  (101): YOLOLayer()
  (102): Sequential()
  (103): Sequential(
    (Conv2d): Conv2d(256, 128, kernel_size=(1, 1), stride=(1, 1), bias=False)
    (BatchNorm2d): BatchNorm2d(128, eps=0.0001, momentum=0.003, affine=True, track_running_stats=True)
    (activation): LeakyReLU(negative_slope=0.1, inplace=True)
  )
  (104): Upsample(scale_factor=2.0, mode=nearest)
  (105): Sequential()
  (106): Sequential(
    (Conv2d): Conv2d(384, 128, kernel_size=(1, 1), stride=(1, 1), bias=False)
    (BatchNorm2d): BatchNorm2d(128, eps=0.0001, momentum=0.003, affine=True, track_running_stats=True)
    (activation): LeakyReLU(negative_slope=0.1, inplace=True)
  )
  (107): Sequential(
    (Conv2d): Conv2d(128, 256, kernel_size=(3, 3), stride=(1, 1), padding=(1, 1), bias=False)
    (BatchNorm2d): BatchNorm2d(256, eps=0.0001, momentum=0.003, affine=True, track_running_stats=True)
    (activation): LeakyReLU(negative_slope=0.1, inplace=True)
  )
  (108): Sequential(
    (Conv2d): Conv2d(256, 128, kernel_size=(1, 1), stride=(1, 1), bias=False)
    (BatchNorm2d): BatchNorm2d(128, eps=0.0001, momentum=0.003, affine=True, track_running_stats=True)
    (activation): LeakyReLU(negative_slope=0.1, inplace=True)
  )
  (109): Sequential(
    (Conv2d): Conv2d(128, 256, kernel_size=(3, 3), stride=(1, 1), padding=(1, 1), bias=False)
    (BatchNorm2d): BatchNorm2d(256, eps=0.0001, momentum=0.003, affine=True, track_running_stats=True)
    (activation): LeakyReLU(negative_slope=0.1, inplace=True)
  )
  (110): Sequential(
    (Conv2d): Conv2d(256, 128, kernel_size=(1, 1), stride=(1, 1), bias=False)
    (BatchNorm2d): BatchNorm2d(128, eps=0.0001, momentum=0.003, affine=True, track_running_stats=True)
    (activation): LeakyReLU(negative_slope=0.1, inplace=True)
  )
  (111): Sequential(
    (Conv2d): Conv2d(128, 256, kernel_size=(3, 3), stride=(1, 1), padding=(1, 1), bias=False)
    (BatchNorm2d): BatchNorm2d(256, eps=0.0001, momentum=0.003, affine=True, track_running_stats=True)
    (activation): LeakyReLU(negative_slope=0.1, inplace=True)
  )
  (112): Sequential(
    (Conv2d): Conv2d(256, 30, kernel_size=(1, 1), stride=(1, 1))
  )
  (113): YOLOLayer()
)